graduation/server/autoencoder_trained_multi.pth (torch, 749823 bytes, 12 tensors)

encoder.0.weight f4 [32, 3, 3, 3]
-0.018843291 0.21104272 -0.1258855 -0.052916672 0.064855054 -0.08479641 0.1747864 0.06363651
0.18258794 0.02610215 -0.06739178 0.20174907 0.09772984 -0.05332983 0.06324438 -0.06019971
-0.012615536 0.042686373 0.059691638 0.055962726 0.016655566 -0.055615045 0.16295688 -0.14929119
0.031033125 0.090978615 0.022213051 0.107555985 -0.15567155 -0.1723064 0.18917763 0.17354251
0.08186931 0.13573772 0.1711309 0.022661502 0.19604158 0.05235517 -0.00953898 0.094534494
-0.026272763 -0.13560511 0.19144507 0.038515277 -0.14562248 -0.103464454 0.083590135 -0.0223687
-0.07865402 -0.058933016 -0.15855086 0.1767016 -0.13256118 -0.019043006 -0.176033 0.16712612
0.10432472 0.01773228 -0.1540556 0.1015185 -0.0044294614 -0.044131175 -0.02190282 0.10214168
-0.0672336 -0.07040697 -0.096032344 -0.14375927 -0.045820314 0.08280183 -0.050421868 0.16823234
-0.023052199 0.009725496 0.20560113 -0.005895952 0.12081209 0.123750106 0.18024667 0.18873651
-0.024265384 -0.17359972 -0.118349195 0.1855262 0.023546224 0.059591815 0.15316008 -0.18874727
0.1250816 -0.0014175476 -0.10997024 0.014949696 0.01897467 -0.12744431 -0.17182642 0.18283252
0.023206621 -0.06279387 0.13614082 6.2731444e-05 -0.15689792 0.11627268 -0.1154043 -0.07287229
-0.046648502 0.16895929 -0.016719108 0.15267332 0.19663318 -0.14262326 -0.10733509 0.063881785
0.17250773 -0.03167483 -0.12830836 0.10342211 0.009888729 0.10151482 0.10385326 -0.13201936
-0.04956425 0.0030410765 -0.109692164 -0.112138875 -0.13059442 0.07636521 0.1478262 0.2106236
-0.004291081 0.15450129 -0.067217305 -0.048806503 0.17021738 0.0623382 0.08351622 0.13903004
-0.14761928 0.06957494 -0.12421303 -0.11006571 -0.012674309 0.07554495 -0.020281496 0.07070724
0.029871577 0.015912669 -0.16220981 0.12329856 0.107478335 0.033231676 0.057473123 0.0808296
0.10481712 0.14423557 -0.11338914 0.14423296 0.070186004 0.100104354 0.15937725 -0.16119875
-0.053382255 0.08227142 0.1772723 0.031110717 0.20781833 -0.09128171 0.11342199 -0.12080584
0.11209358 0.07386463 0.1002339 0.18627405 -0.10915356 0.041725155 -0.030736469 0.08474246
-0.029259173 -0.05532904 -0.046850458 -0.029670216 0.10765172 -0.09726076 0.1470733 0.14674856
0.0020481227 -0.04424822 0.11620351 0.01766229 0.14001359 0.1961995 -0.1337044 -0.059146497
0.18157049 -0.035013456 0.05675849 0.10135279 0.082327925 0.07308796 -0.062101092 -0.1702145
0.13780792 0.20788941 0.11947336 0.17649505 -0.17533018 0.1280533 -0.09759731 -0.05843179
0.008435691 0.07479014 0.04912778 0.095725656 0.13740544 0.17795676 0.16165127 0.17459166
-0.04130765 -0.0473461 -0.0657337 0.16962181 0.17327252 0.10988398 0.12204177 0.17632191
-0.1589652 0.1569585 0.030101301 0.12179029 -0.13217764 -0.023207814 -0.059246927 0.055366684
0.06832992 -0.03738528 -0.07184876 0.20053264 -0.17014883 0.016589966 -0.14733432 0.1422158
0.049164176 -0.0631359 0.04709529 -0.09413539 0.20012598 0.1805169 0.102239005 -0.056056987
0.04288165 0.013709579 0.11269628 -0.012390641 0.12754108 -0.08571383 0.09312684 -0.034608316
00000000: 3f5d 9abc 951b 583e 21e8 00be 27bf 58bd
00000010: bad2 843d bda9 adbd 35fb 323e dc53 823d
00000020: 55f8 3a3e 2dd4 d53c b404 8abd 4f97 4e3e
00000030: 9526 c83d 6170 5abd 4586 813d f993 76bd
00000040: 65b1 4ebc e8d7 2e3d 387f 743d 2c39 653d
00000050: 4171 883c 9acc 63bd 2bde 263e cadf 18be
00000060: 2e39 fe3c ff52 ba3d 25f8 b53c 5046 dc3d
00000070: 5d68 1fbe 1771 30be c8b7 413e 21b5 313e
00000080: 19ab a73d d4fe 0a3e f03c 2f3e 9da4 b93c
00000090: 20bf 483e 6072 563d 6249 1cbc 4d9b c13d
000000a0: fa39 d7bc 11dc 0abe 2d0a 443e 32c2 1d3d
000000b0: 0f1e 15be 2ce5 d3bd 4e31 ab3d 903e b7bc
000000c0: 5c15 a1bd bf63 71bd 285b 22be 44f1 343e
000000d0: 1ebe 07be 1400 9cbc ff41 34be 1c23 2b3e
000000e0: 33a8 d53d 4943 913c c0c0 1dbe eee8 cf3d
000000f0: 0425 91bb e4c2 34bd 8b6d b3bc a82f d13d
00000100: c5b1 89bd 8831 90bd 9bac c4bd a135 13be
00000110: 15ae 3bbd 0194 a93d 2987 4ebd 1945 2c3e
00000120: f7d7 bcbc b057 1f3c 1a89 523e d532 c1bb
00000130: 546c f73d b270 fd3d 9592 383e 2544 413e
00000140: 33c8 c6bc 20c4 31be 1061 f2bd 95fa 3d3e
00000150: 03e4 c03c 8c16 743d ffd5 1c3e f746 41be
00000160: 6415 003e 01cd b9ba 1438 e1bd 92ef 743c
00000170: c470 9b3c c380 02be 44f3 2fbe 7338 3b3e
00000180: d01b be3c 139a 80bd 8068 0b3e b08e 8338
00000190: d9a9 20be 5f20 ee3d 1759 ecbd 113e 95bd
000001a0: 8012 3fbd aa03 2d3e 83f6 88bc 6556 1c3e
000001b0: 355a 493e d50b 12be 80d2 dbbd 74d4 823d
000001c0: dea5 303e 77bd 01bd 4463 03be f9ce d33d
000001d0: 5604 223c 00e7 cf3d 05b1 d43d 1530 07be
000001e0: e203 4bbd cc4c 473b 49a6 e0bd 11a9 e5bd
000001f0: 8bba 05be 5d65 9c3d c05f 173e b7ad 573e
00000200: 329c 8cbb 9635 1e3e 3aa9 89bd 54e9 47bd
00000210: 774d 2e3e 5756 7f3d 8d0a ab3d e45d 0e3e
00000220: 8229 17be 4e7d 8e3d 6763 febd 226a e1bd
00000230: e8a7 4fbc 50b7 9a3d 6125 a6bc f5ce 903d
00000240: 3db5 f43c 495b 823c 541a 26be f583 fc3d
00000250: 9a1d dc3d f01d 083d f068 6b3d fd89 a53d
00000260: 5caa d63d 7db2 133e 9138 e8bd ceb1 133e
00000270: aebd 8f3d 8303 cd3d ca33 233e 4911 25be
00000280: 5aa7 5abd eb7d a83d df86 353e e7db fe3c
00000290: 54ce 543e e8f1 babd ca49 e83d 0d69 f7bd
000002a0: 5291 e53d 5746 973d 6e47 cd3d a0be 3e3e
000002b0: e78b dfbd ffe7 2a3d 0ccb fbbc 748d ad3d
000002c0: efb0 efbc b4a0 62bd 44e6 3fbd f40e f3bc
000002d0: 8178 dc3d a630 c7bd 629a 163e 4145 163e
000002e0: cc39 063b 9f3d 35bd 1bfc ed3d 82b0 903c
000002f0: b95f 0f3e 86e8 483e cee9 08be 9943 72bd
00000300: 9ded 393e 456a 0fbd 977b 683d 0d92 cf3d
00000310: 8b9b a83d 24af 953d b75d 7ebd b64c 2ebe
00000320: 851d 0d3e f6e0 543e 73ae f43d 1ebb 343e
00000330: c189 33be 6720 033e 19e1 c7bd 2c56 6fbd
00000340: da35 0a3c 932b 993d 363a 493d d00b c43d
00000350: 03b4 0c3e 4c3a 363e e987 253e 28c8 323e
00000360: 3632 29bd fced 41bd 649f 86bd 57b1 2d3e
00000370: 5a6e 313e da0a e13d 09f1 f93d bb8d 343e
00000380: c6c7 22be bbb9 203e 0197 f63c 306d f93d
00000390: 9359 07be 501e bebc e8ac 72bd 2dc8 623d
000003a0: 8ff0 8b3d 4f21 19bd 7125 93bd 6e58 4d3e
000003b0: 7f3b 2ebe aee7 873c cfde 16be 05a1 113e
000003c0: 6060 493d 654d 81bd fee6 403d 0eca c0bd
000003d0: d3ed 4c3e 6cd9 383e af62 d13d 039c 65bd
000003e0: aba4 2f3d 249e 603c 4fcd e63d 1d02 4bbc
000003f0: 219a 023e bc8a afbd 49b9 be3d 73c1 0dbd

encoder.0.bias f4 [32]
0.11950961 0.0663085 -0.16318263 -0.13644172 0.029777864 -0.123134024 -0.10920217 -0.13653842
-0.17673251 0.051585075 -0.1728334 -0.14397165 0.053691126 -0.05492196 -0.02638281 0.00794001
-0.11079939 0.07860042 -0.04725073 0.0103724245 -0.14457417 0.07792653 -0.19444163 0.20083928
-0.004509097 0.19603753 -0.14961654 0.025024306 -0.11492027 -0.04493261 -0.10900408 -0.08501385
00000000: 74c1 f43d c0cc 873d 5919 27be 61b7 0bbe
00000010: b5f0 f33c b12d fcbd 63a5 dfbd bad0 0bbe
00000020: 5ef9 34be df4a 533d 3dfb 30be 4e6d 13be
00000030: 3aeb 5b3d d9f5 60bd c320 d8bc d116 023c
00000040: caea e2bd 42f9 a03d fb89 41bd 1af1 293c
00000050: 400b 14be f297 9f3d b51b 47be d0a8 4d3e
00000060: 0cc1 93bb 10be 483e 1435 19be c6ff cc3c
00000070: 525b ebbd 420b 38bd 883d dfbd be1b aebd

encoder.2.weight f4 [64, 32, 3, 3]
-0.041589078 -0.023132408 -0.035294753 0.0107151875 -0.0543282 -0.051663607 0.047816474 0.029190017
-0.0031555314 0.025945028 0.032142315 -0.021858498 0.03894853 -0.040151384 0.030280644 0.0012794605
-0.0064319987 0.010500917 -0.052297626 -0.034784738 -0.0108930785 -0.049735527 -0.053707287 -0.010307363
-0.0095259175 -0.035635557 -0.040774517 0.016999062 0.023027709 -0.041587226 0.025219902 0.031203775
-0.038529843 -0.0062541845 -0.055044986 -0.016622707 0.030692847 -0.0473243 -0.033233814 -0.018729048
-0.05826466 0.03231561 0.05040783 0.026372418 -0.04680518 -0.037803587 0.052455295 -0.04001162
-0.0033452078 -0.014022913 -0.05374757 -0.03347245 0.04700012 0.022704491 0.030101009 0.024272528
-0.055315293 -0.02020656 -0.016194224 -0.04107768 0.027164299 -0.057616144 -0.03578992 -0.022679586
0.0037715265 0.030825391 -0.04550508 -0.057207458 0.03973901 0.013552999 -0.021167293 -0.025033457
0.019878104 -0.050913796 -0.031067785 -0.0022182104 0.018834801 0.027418077 0.015773734 -0.042972855
-0.059531175 0.0041095936 -0.0055550183 0.05127555 0.04456148 0.012586399 -0.058026973 0.04018149
0.04829284 0.01603083 -0.047876682 0.023224713 -0.031206027 0.030312534 -0.012407576 0.0074456967
0.022806427 0.012831843 -0.05004936 -0.018222706 -0.06405314 0.017989397 0.049833633 -0.033672
0.016656289 -0.054125432 0.037579976 -0.028050106 0.020327091 -0.015545268 0.047708854 0.050150696
-0.03156303 0.050810985 0.04713687 -0.015784483 -0.017542044 0.032999124 -0.00715265 0.036717717
0.033211593 -0.021410681 0.011787271 0.013050037 -0.035820857 -0.03172135 -0.028718289 -0.017697051
0.025642687 -0.051315483 0.025413359 -0.019897552 0.03954128 0.012715039 0.052006505 -0.014563148
0.031654004 0.049150966 -0.014463225 0.055962965 0.048471447 -0.026050117 0.021949045 0.0019675344
-0.012228227 0.028926084 -0.03982584 0.021943398 -0.008769137 -0.0077873045 0.038560376 -0.030892635
-0.0491406 -0.035008963 -0.052065525 -0.02168472 -0.006032638 -0.010345547 0.028662795 -0.054344468
-0.02783302 0.020945484 0.0038770395 -0.050868366 -0.0018320533 -0.005170519 -0.05060943 0.03828677
-0.00693643 0.056723457 0.011071478 0.006030255 0.005569368 -0.0269626 -0.0024754356 -0.054990638
-0.057796046 -0.053305846 0.047962904 -0.03022703 0.027253795 -0.016968673 -0.029687755 0.020166418
-0.028431049 0.0331529 0.052087083 -0.04683465 -0.04145116 -0.020577539 -0.0069277952 0.018276328
0.009805609 -0.011204097 -0.033014476 0.03456608 -0.04285717 -0.048822887 -0.046844654 -0.02421273
-0.032370068 0.021835636 -0.010635801 0.04721346 0.041710522 0.034754433 -0.029900597 0.015345258
0.021244615 0.018552655 0.018179648 -0.019905051 -0.05599884 0.03509669 0.010065526 0.009700795
0.0330598 0.032036122 0.038105138 0.01762773 -0.053692646 0.03873456 -0.04465137 0.014124685
-0.011744191 -0.017315168 0.015392664 -0.03211144 0.050519098 -0.060871564 0.048480682 -0.012422321
-0.0063990997 0.03754858 0.040858187 -0.060941912 -0.05023407 -0.051061276 -0.03574696 -0.042758666
0.0031055838 -0.05745616 -0.033339456 -0.05007038 -0.04511148 0.03881653 0.0075614518 -0.04632263
0.03330948 0.0076062996 -0.043506254 -0.05098185 -0.033081356 0.04520315 -0.042384464 0.058244187
00000000: 4f59 2abd 2d80 bdbc 3b91 10bd c18e 2f3c
00000010: 3f87 5ebd 389d 53bd 35db 433d e71f ef3c
00000020: 08cd 4ebb ab8a d43c a9a7 033d 9810 b3bc
00000030: 7e88 1f3d c775 24bd 1d0f f83c 92b3 a73a
00000040: 84c3 d2bb 0a0c 2c3c 0936 56bd 717a 0ebd
00000050: e278 32bc 7bb7 4bbd 2cfc 5bbd 37e0 28bc
00000060: 9812 1cbc 97f6 11bd 2e03 27bd 9e41 8b3c
00000070: 9ba4 bc3c 5e57 2abd f899 ce3c 0f9f ff3c
00000080: 78d1 1dbd e7ef ccbb da76 61bd 582c 88bc
00000090: 916f fb3c 20d7 41bd 2e20 08bd a96d 99bc
000000a0: eda6 6ebd 605d 043d 7178 4e3d f80a d83c
000000b0: cab6 3fbd efd7 1abd 5ddb 563d 39e3 23bd
000000c0: 463b 5bbb 5cc0 65bc 6926 5cbd 681a 09bd
000000d0: 3383 403d c5fe b93c 6496 f63c 2ed7 c63c
000000e0: 4a92 62bd 3a88 a5bc c0a9 84bc 1241 28bd
000000f0: aa87 de3c e8fe 6bbd 7398 12bd 8aca b9bc
00000100: b72b 773b 8885 fc3c 8963 3abd 5e52 6abd
00000110: 5fc5 223d 660d 5e3c 0867 adbc f712 cdbc
00000120: 68d7 a23c fc8a 50bd de81 febc 655f 11bb
00000130: 714b 9a3c e09b e03c eb37 813c 4e04 30bd
00000140: f6d6 73bd c5a9 863b df06 b6bb 5006 523d
00000150: 1986 363d 2f37 4e3c b1ad 6dbd 5995 243d
00000160: b7ce 453d 1653 833c 571a 44bd c141 be3c
00000170: c8a3 ffbc fe51 f83c 2549 4bbc 08fb f33b
00000180: 8bd4 ba3c a73c 523c 8f00 4dbd c947 95bc
00000190: 4b2e 83bd 805e 933c 5a1e 4c3d a7eb 09bd
000001a0: c572 883c a1b2 5dbd 76ed 193d 56c9 e5bc
000001b0: 0085 a63c 94b1 7ebc 5c6a 433d d16a 4d3d
000001c0: 3c48 01bd 2e1f 503d 9712 413d 764e 81bc
000001d0: 55b4 8fbc 172a 073d c760 eabb 5165 163d
000001e0: e108 083d 7465 afbc 661f 413c d3cf 553c
000001f0: e4b8 12bd 3fee 01bd 9e42 ebbc 68f9 90bc
00000200: 9d10 d23c 2f30 52bd ad2f d03c 3100 a3bc
00000210: 0af6 213d bd52 503c c604 553d 459a 6ebc
00000220: a1a7 013d 8652 493d 2af7 6cbc 6c39 653d
00000230: ff89 463d 0e67 d5bc 7cce b33c c0f1 003b
00000240: e758 48bc 65f6 ec3c 6c20 23bd a4c2 b33c
00000250: 6dac 0fbc a52c ffbb 7cf1 1d3d 8d12 fdbc
00000260: a747 49bd 8f65 0fbd a942 55bd 27a4 b1bc
00000270: 6fad c5bb 5f80 29bc 3dce ea3c 4e98 5ebd
00000280: 1302 e4bc dd95 ab3c ee15 7e3b 595b 50bd
00000290: 8221 f0ba 756d a9bb d54b 4fbd 97d2 1c3d
000002a0: fe4a e3bb db56 683d 2565 353c 7299 c53b
000002b0: 3f7f b63b ace0 dcbc eb3a 22bb dd3d 61bd
000002c0: 8cbb 6cbd 3b57 5abd c074 443d ad9e f7bc
000002d0: 5a43 df3c e301 8bbc bc33 f3bc 0b34 a53c
000002e0: 3be8 e8bc 56cb 073d 4459 553d b1d5 3fbd
000002f0: b1c8 29bd 3a92 a8bc 8f02 e3bb 3db8 953c
00000300: b4a7 203c 6491 37bc 303a 07bd 2995 0d3d
00000310: 008b 2fbd 82fa 47bd 2ee0 3fbd c659 c6bc
00000320: 7a96 04bd a6e0 b23c c841 2ebc e762 413d
00000330: a7d8 2a3d aa5a 0e3d 19f2 f4bc ad6a 7b3c
00000340: 3009 ae3c bdfb 973c 7ced 943c eb0f a3bc
00000350: 0a5f 65bd 8cc1 0f3d e0e9 243c 15f0 1e3c
00000360: b669 073d 4f38 033d 2214 1c3d 0768 903c
00000370: d2ec 5bbd 21a8 1e3d 5be4 36bd 396b 673c
00000380: b56a 40bc 8ad8 8dbc 8331 7c3c 4987 03bd
00000390: 1ded 4e3d 7654 79bd ae93 463d fe86 4bbc
000003a0: 8aaf d1bb 8acc 193d ea5a 273d 3a9e 79bd
000003b0: 3dc2 4dbd a125 51bd 686b 12bd b623 2fbd
000003c0: 0d87 4b3b 2757 6bbd f48e 08bd 9916 4dbd
000003d0: d1c6 38bd 15fe 1e3d 0ec6 f73b ccbc 3dbd
000003e0: 856f 083d 443e f93b 9d33 32bd 58d2 50bd
000003f0: 5180 07bd f026 393d 559b 2dbd 7591 6e3d

encoder.2.bias f4 [64]
-0.03497305 -0.04475961 0.018078187 0.0070928386 0.06784887 0.046697076 -0.05287797 -0.039739296
-0.02913149 -0.013718248 -0.0079356395 -0.02669199 0.022865487 0.06191237 -0.03616838 0.027449362
0.06849142 0.01723738 0.05346299 -0.030810371 0.0094044395 0.0151696205 0.025960488 -0.027714677
0.06451694 -0.009321345 0.047577612 -0.004780056 0.018613845 0.0316602 0.03268762 -0.041960172
0.06767015 -0.027914403 -0.016666278 0.04120349 -0.055253215 -0.029283302 -0.060122825 0.097567365
0.025698772 0.041124605 0.06912919 0.011549289 -0.0055168145 0.067199625 0.0002613457 -0.024885952
-0.011346617 -0.015831158 0.04504619 0.023461057 -0.001971307 -0.04628809 0.04263705 0.013200821
-0.05284555 -0.050255705 -0.04531993 0.045822166 -0.0014026219 0.034894783 -0.0582639 0.016075775
00000000: e73f 0fbd da55 37bd b518 943c 0b6b e83b
00000010: 59f4 8a3d 6f45 3f3d 9296 58bd acc5 22bd
00000020: 2aa5 eebc 81c2 60bc 7c04 02bc 29a9 dabc
00000030: 6750 bb3c d397 7d3d 4c25 14bd 7cdd e03c
00000040: 3b45 8c3d 6835 8d3c 02fc 5a3d 0866 fcbc
00000050: 1415 1a3c 008a 783c 17ab d43c e409 e3bc
00000060: 7521 843d 8eb8 18bc bee0 423d 04a2 9cbb
00000070: 107c 983c 20ae 013d 74e3 053d 6ede 2bbd
00000080: a696 8a3d bfac e4bc b887 88bc fec4 283d
00000090: 3251 62bd 89e3 efbc 5a43 76bd 66d1 c73d
000000a0: 3b86 d23c 4672 283d 9b93 8d3d 3b39 3d3c
000000b0: 65c6 b4bb f59f 893d 3a05 8939 a0dd cbbc
000000c0: 29e7 39bc 58b0 81bc 5b82 383d 6731 c03c
000000d0: 0b31 01bb 9598 3dbd 30a4 2e3d 4248 583c
000000e0: 9374 58bd edd8 4dbd 64a1 39bd 06b0 3b3d
000000f0: 2ed8 b7ba d5ed 0e3d 21a6 6ebd 58b1 833c

encoder.4.weight f4 [128, 64, 3, 3]
-0.0018605441 0.0257307 -0.033572193 -0.02152434 0.031772204 0.033582643 -0.028885141 -0.038383283
0.00400051 -0.014400562 -0.003891036 0.026623016 0.0128841465 0.03258165 0.0051533827 0.032506056
0.024772253 0.020770753 0.021861792 0.0041915933 0.004880652 0.0065551405 -0.008062463 -0.04295171
0.014824258 0.016212154 -0.03980954 0.03686275 0.0012997487 -0.029951623 -0.04245362 0.018216467
-0.030384695 0.020152045 -0.03666863 -0.041898057 -0.008196677 -0.035498597 0.024994504 0.01081856
0.00756955 0.028861139 0.027873153 0.022489848 -0.0222733 -0.041452985 -0.039932553 0.002090165
-0.020201992 0.035125386 -0.03450325 -0.038936578 -0.014726869 -0.014264944 -0.008394277 -0.025337731
0.0037935674 -0.04147571 -0.016094863 0.022469293 -0.03674218 0.012499164 -0.002162079 0.03281003
-0.012577753 -0.0084082335 -0.007980123 -0.013732657 -0.021845412 0.026912168 -0.0022670082 -0.009102559
0.010942022 0.00973254 -0.018265232 0.03594336 -0.03251339 0.025511544 -0.0109453555 0.02219145
0.0012353312 0.027911048 0.0074714175 0.03259803 -0.031342827 -0.01569911 0.029990703 0.00035732734
-0.019371448 -0.024490373 0.034666624 -0.022438344 0.037340812 0.04006901 0.0070850207 -0.004797553
0.03763067 0.0073433323 -0.018666636 -0.018484807 -0.024589535 0.009063731 -0.0077909036 -0.020048788
0.009378776 -0.016255802 -0.036590368 0.0048524044 0.003494334 -0.036061123 0.028326167 0.013111508
-0.03883117 0.034639943 -0.033539414 0.0014060948 0.034952126 -0.02436926 0.0038208603 -0.02132908
-0.037170865 -0.021538315 -0.011510443 0.008497622 0.016586838 -0.03086949 0.01269195 -0.0032511852
-0.007302483 -0.028098157 0.00015524527 0.03722336 0.00530238 -0.004565736 -0.03811453 0.021186775
0.037029356 -0.022492237 0.0011979969 0.015890948 -0.035695426 0.025513548 -0.009242116 -0.015575503
-0.0023764619 0.0017717564 -0.018262716 -0.0009815712 0.030927014 -0.028060375 -0.032429967 0.020617874
-0.020237768 0.029201094 -0.036836516 -0.0061113513 0.0075858166 -0.015153636 -0.041423254 -0.005072356
-0.020693528 0.020086221 0.027138649 -0.0078062974 -0.0063750227 0.025842143 -0.03422973 -0.015692146
-0.021444404 -0.009106893 0.010548187 0.007395248 -0.019498095 0.038429365 0.014469346 -0.021710431
0.012046501 0.0074184043 -0.04127445 -0.033449613 0.032254137 -0.019465856 -0.0036692712 0.029481394
-0.029870927 -0.008661717 -0.03419279 -0.033772014 0.011198533 -0.039653182 0.001633524 0.0136326365
0.030804433 0.029324293 -0.019311296 -0.030644145 0.022857979 -0.0024385145 0.01644943 0.038849287
-0.034304116 -0.016076308 -0.025026597 -0.0013142461 0.018570023 -0.017103955 -0.025683304 -0.021978728
0.016718036 -0.013336888 0.029224597 0.015351835 0.0112194205 -0.029087381 -0.01675989 0.03672596
-0.032095 -0.027476532 0.020548657 0.023954613 -0.022054838 0.034450497 -0.031776227 0.009167892
0.031974077 -0.037147604 0.040383324 -0.03252341 -0.006766051 0.029288694 -0.005721619 0.0044204546
-0.03126776 -0.0059360266 -0.040405408 0.03339227 0.024300314 0.034033947 -0.0024841663 -0.012111065
-0.03905936 0.0072269905 -0.001561712 -0.009220151 0.023391766 0.036814693 0.032266285 0.039309792
-0.022522755 -0.018017655 -0.011289852 0.03788816 0.026237339 -0.002341255 -0.02508598 -0.0068348492
00000000: 80dd f3ba 30c9 d23c ff82 09bd d053 b0bc
00000010: 9223 023d f48d 093d 88a0 ecbc ca37 1dbd
00000020: b616 833b 56f0 6bbc c000 7fbb 8318 da3c
00000030: 0718 533c 5674 053d b5dd a83b 1225 053d
00000040: 2eef ca3c 6d27 aa3c 8017 b33c a259 893b
00000050: e0ed 9f3b 81cc d63b 6c18 04bc 22ee 2fbd
00000060: 72e1 723c 5acf 843c 540f 23bd 65fd 163d
00000070: 545c aa3a 1b5d f5bc d9e3 2dbd b33a 953c
00000080: 53e9 f8bc e715 a53c d831 16bd 4c9d 2bbd
00000090: 5b4b 06bc fa66 11bd 46c1 cc3c 5440 313c
000000a0: fd09 f83b 326e ec3c 3d56 e43c a13c b83c
000000b0: 7f76 b6bc 9bca 29bd 5190 23bd 26fb 083b
000000c0: a67e a5bc a3df 0f3d 4853 0dbd f67b 1fbd
000000d0: f748 71bc 83b7 69bc 2688 09bc 1391 cfbc
000000e0: 809d 783b 6fe2 29bd 60d9 83bc 8611 b83c
000000f0: f87e 16bd 4bc9 4c3c abb1 0dbb cf63 063d
00000100: eb12 4ebc b0c2 09bc 10bf 02bc f0fe 60bc
00000110: 26f5 b2bc e876 dc3c 1692 14bb e622 15bc
00000120: 2b46 333c 3b75 1f3c f8a0 95bc 5839 133d
00000130: c32c 05bd 96fd d03c 2654 33bc d8ca b53c
00000140: d6ea a13a b6a5 e43c cbd2 f43b 8385 053d
00000150: 5661 00bd 6c9b 80bc 10af f53c aa57 bb39
00000160: dfb0 9ebc 09a0 c8bc 97fe 0d3d 9ed0 b7bc
00000170: aef2 183d 671f 243d 7629 e83b cb34 9dbb
00000180: 9e22 1a3d 56a0 f03b c6ea 98bc 736d 97bc
00000190: fe6f c9bc 0b80 143c d64a ffbb 5b3d a4bc
000001a0: 70a9 193c e32a 85bc c8df 15bd eb00 9f3b
000001b0: 3201 653b d4b4 13bd 470c e83c a7d1 563c
000001c0: 6f0d 1fbd 9de2 0d3d a060 09bd b64c b83a
000001d0: f629 0f3d 0ba2 c7bc 6667 7a3b 53ba aebc
000001e0: 7a40 18bd 1f71 b0bc 4c96 3cbc 9c39 0b3c
000001f0: 1fe1 873c 03e2 fcbc e6f1 4f3c d611 55bb
00000200: ab49 efbb 1b2e e6bc 56c9 2239 8677 183d
00000210: 96bf ad3b 2b9c 95bb fb1d 1cbd e38f ad3c
00000220: 18ac 173d a441 b8bc 1b06 9d3a bc2d 823c
00000230: 5e35 12bd ca01 d13c 3e6c 17bc 6530 7fbc
00000240: 6abe 1bbb 483a e83a b19b 95bc 10a8 80ba
00000250: a65a fd3c dfde e5bc 49d5 04bd d1e6 a83c
00000260: adc9 a5bc 2237 ef3c e3e1 16bd bb41 c8bb
00000270: 7192 f83b f546 78bc 6eab 29bd 0236 a6bb
00000280: 7985 a9bc dc8b a43c df51 de3c f8cb ffbb
00000290: 91e5 d0bb e7b2 d33c 7934 0cbd d18c 80bc
000002a0: 2dac afbc 1435 15bc 4ed2 2c3c d653 f23b
000002b0: 78ba 9fbc 1c68 1d3d d610 6d3c 13da b1bc
000002c0: b05e 453c 1616 f33b 660f 29bd 7602 09bd
000002d0: ea1c 043d dc76 9fbc 2878 70bb f782 f13c
000002e0: e0b3 f4bc e0e9 0dbc bd0d 0cbd 8654 0abd
000002f0: 0d7a 373c 606b 22bd f81b d63a 6c5b 5f3c
00000300: 9459 fc3c 8039 f03c b932 9ebc 6e09 fbbc
00000310: a840 bb3c 7ccf 1fbb f4c0 863c 6e20 1f3d
00000320: 7982 0cbd 76b2 83bc 9404 cdbc c842 acba
00000330: 2920 983c 981d 8cbc cb65 d2bc bc0c b4bc
00000340: 43f4 883c f682 5abc 6c68 ef3c 4386 7b3c
00000350: a9d1 373c a948 eebc 094c 89bc f66d 163d
00000360: 0c76 03bd 7716 e1bc a855 a83c 773c c43c
00000370: 59ac b4bc f71b 0d3d ca27 02bd ed34 163c
00000380: 40f7 023d 1628 18bd fc68 253d 4437 05bd
00000390: c0b5 ddbb d8ee ef3c 6b7c bbbb 76d9 903b
000003a0: 9f12 00bd 0083 c2bb 2480 25bd 55c6 083d
000003b0: 7411 c73c 2e67 0b3d 65cd 22bb 7d6d 46bc
000003c0: b5fc 1fbd 64d0 ec3b 5cb2 ccba 1e10 17bc
000003d0: 17a0 bf3c 01cb 163d a729 043d 4e03 213d
000003e0: a481 b8bc c399 93bc 12f9 38bc 9e30 1b3d
000003f0: b0ef d63c be6f 19bb 1d81 cdbc dff6 dfbb

encoder.4.bias f4 [128]
0.029833913 0.05215193 0.0026781328 0.0064539765 -0.020789418 -0.03423031 -0.037213005 0.01358534
0.020310802 -0.03453809 0.020825757 -0.026204508 -0.022360869 -0.0018136402 0.044047486 0.0068538166
-0.026202267 -0.025771849 -0.0021649227 0.0019403811 -0.024939954 -0.008884601 0.039246336 -0.019434536
0.028608741 0.025895124 0.05470165 0.03865312 0.034392904 0.033889886 0.0101335 -0.027689561
-0.008089386 0.005675402 -0.0012339811 0.018971689 -0.019018458 0.008800838 -0.0063115843 -0.025844406
0.042974636 0.05677924 0.03916009 -0.023652965 0.007866059 0.006356751 -0.048435222 -0.0029734324
-0.003921294 -0.023903232 0.009469177 0.023911862 -0.017580042 -0.024392113 -0.024394851 -0.024032107
0.029359618 -0.008682162 0.026338587 0.030468091 0.034901213 0.0032045303 0.025138907 0.0064224685
0.055539362 -0.030995237 -0.019052276 -0.002760258 0.04944541 -0.00460739 0.03788732 0.017975898
-0.014371179 -0.007601122 0.030008972 0.034460254 -0.013057217 0.00019552316 0.025239227 -0.035541225
0.037001487 0.04749072 0.029512117 0.01879102 -0.021065488 -0.010317703 0.02509305 0.0016275231
-0.035338607 -0.01217702 0.006330734 0.01053756 -0.023732489 0.002802532 -0.020845225 -0.020157684
0.005977465 0.028778685 -0.010635822 0.032458924 -0.043553535 0.03573209 0.0045691435 0.034611106
0.033369016 0.011606403 -0.01691837 -0.00063408515 0.055749476 -0.015042537 0.015860561 0.023759767
0.023976576 0.033492472 -0.037166774 -0.028758354 -0.019898074 -0.0015947323 -0.039935805 -0.017080162
0.044605628 -0.018320076 -0.039134853 -0.018141221 0.026365489 0.025729988 -0.018902538 -0.012607666
00000000: 4066 f43c 439d 553d 9d83 2f3b e17b d33b
00000010: 924e aabc 1535 0cbd aa6c 18bd 0c95 5e3c
00000020: d762 a63c d077 0dbd c79a aa3c d6aa d6bc
00000030: 242e b7bc abb7 edba 236b 343d fb95 e03b
00000040: 23a6 d6bc 7c1f d3bc 60e1 0dbb 6354 fe3a
00000050: e04e ccbc b890 11bc c4c0 203d 2d35 9fbc
00000060: e15c ea3c 0322 d43c d60e 603d bc52 1e3d
00000070: 93df 0c3d 1fd0 0a3d fb06 263c 38d5 e2bc
00000080: 5889 04bc b9f8 b93b 89bd a1ba 846a 9b3c
00000090: 99cc 9bbc 6431 103c 68d1 cebb a6b7 d3bc
000000a0: 2c06 303d 5991 683d 5566 203d ddc3 c1bc
000000b0: a5e0 003c 4b4c d03b 0364 46bd ebdd 42bb
000000c0: 337e 80bb b6d0 c3bc 9b24 1b3c cfe2 c33c
000000d0: 0504 90bc f8d1 c7bc b6d7 c7bc fbde c4bc
000000e0: 9583 f03c a03f 0ebc 05c4 d73c 3898 f93c
000000f0: 93f4 0e3d 1903 523b 1cf0 cd3c 9273 d23b
00000100: 3e7d 633d b9e9 fdbc 8513 9cbc 72e5 34bb
00000110: 4587 4a3d 97f9 96bb bc2f 1b3d 3142 933c
00000120: 1875 6bbc d512 f9bb 60d5 f53c 3226 0d3d
00000130: f0ed 55bc 5905 4d39 7fc2 ce3c ad93 11bd
00000140: df8e 173d a185 423d 65c3 f13c a0ef 993c
00000150: 8891 acbc 950b 29bc f18f cd3c 9d52 d53a
00000160: 37bf 10bd 2082 47bc 0c72 cf3b bba5 2c3c
00000170: a36a c2bc afaa 373b 9bc3 aabc ba21 a5bc
00000180: 9cde c33b 47c1 eb3c df41 2ebc a6f3 043d
00000190: 3165 32bd d05b 123d c1b8 953b 60c4 0d3d
000001a0: f3ad 083d c828 3e3c 6598 8abc bc38 26ba
000001b0: 9059 643d f974 76bc 02ee 813c d8a3 c23c
000001c0: 866a c43c 672f 093d 303c 18bd a496 ebbc
000001d0: 4901 a3bc 5606 d1ba ba93 23bd b2eb 8bbc
000001e0: 64b4 363d fc13 96bc de4b 20bd e69c 94bc
000001f0: 70fc d73c b2c7 d23c 7fd9 9abc 6290 4ebc

decoder.0.weight f4 [128, 64, 3, 3]
0.002869663 0.005804236 0.008350569 -0.034016706 0.03580955 0.021914251 0.009707383 -0.016554823
0.019694975 -0.032524914 -0.033904802 -0.006390696 0.0019945607 0.026792388 -0.03139739 0.020776737
0.011114802 -0.018728483 -0.010262321 0.01396219 0.0039286665 -0.010073528 -0.028681299 0.014840721
-0.016903495 -0.0071552796 -0.041590557 0.015169999 0.003666842 -0.0213554 -0.025645372 0.039428294
0.035488077 0.02150459 -0.014808822 0.0281177 -0.009967981 0.014810735 0.026057351 -0.03764106
-0.023060052 0.0054099555 -0.010470306 -0.0074667633 -0.018154696 0.031202251 0.022028685 0.014216129
-0.02680219 0.014839172 -0.002745041 0.030397294 0.039737727 0.01399379 0.022744352 0.018508157
-0.029626364 0.02297788 -0.037436426 -0.020734621 0.015007413 0.027424362 -0.0049919877 -0.00053063233
0.010273333 0.0025200555 -0.036642537 0.032706834 -0.039962903 -0.02440785 -0.022903189 -0.003590227
-0.01334859 0.0071713547 -0.01959478 -0.0021047592 0.0007002304 0.019150779 0.033405878 0.001545137
0.022201426 0.038818285 0.017469747 -0.04069463 -0.007254745 0.017320441 0.023789862 -0.035778124
0.0026501983 -0.019120885 0.035235092 0.022985771 -0.020875508 -0.028190924 -0.040879477 0.026790861
-0.016120095 -0.0052195312 0.0023559853 0.015920162 -0.023007235 -0.03342646 0.017418813 -0.027727786
0.03446916 -0.035586357 -0.011713989 0.022884483 -0.024660045 -0.01500205 -0.0384359 -0.038036224
0.00021635543 0.0063000955 -0.019207515 -0.030319639 -0.036348 -0.03624108 -0.017826244 0.038250893
0.03541266 -0.04189012 -0.02347485 0.03459391 -0.0077785556 0.011893651 0.0053910576 -0.032763783
-0.032170136 -0.021201989 0.023698498 -0.0057332288 0.0021946742 0.037521247 -0.035169806 -0.0064330897
-0.037777733 -0.003033226 -0.034487735 0.020619273 0.022843176 0.03286741 -0.033512138 0.040240433
-0.036507465 -0.04094734 -0.02996866 0.03932298 -0.005057653 0.0030401598 0.038772225 0.010218218
0.011038879 -0.035866983 0.012356773 0.009008095 -0.041069064 -0.032634493 -0.018409332 0.027639553
-0.02910012 -0.014680828 0.022755563 0.030940011 -0.030988729 0.011317939 0.022322282 0.038792994
-0.002640004 -0.028965782 -0.03810799 0.01976039 -0.03619587 -0.0029926256 -0.005615175 0.028297335
0.03723663 -0.0045379964 -0.038640544 -0.0070942137 0.016155716 0.016175091 -0.016485443 0.01652817
0.022227023 0.004750279 0.023635952 0.024513302 -0.0119333705 0.017369777 0.030827742 -0.009897394
-0.002745018 -0.015481363 -0.015700875 -0.04073016 0.029712832 -0.037684362 -0.036237787 0.034641452
-0.040149286 0.017775917 0.04133798 -0.0064497367 -0.014229804 0.030072162 0.008121914 -0.0278988
-0.03592824 -0.034983926 0.0037848703 0.04125949 -0.009829074 0.023109151 -0.04069121 -0.02439077
0.025749376 0.003489967 -0.035780057 -0.030333113 0.015938953 0.015642645 0.030123137 0.034719672
-0.014685156 -0.0005547117 -0.0032894632 -0.011972308 -0.01703543 -0.028893543 -0.003276075 -0.041913774
0.016675828 0.012181635 0.01606389 -0.00994668 0.02910465 -0.028457306 0.038623407 0.022086477
-0.010930668 -0.00023384101 0.027962282 0.033258423 0.03077283 -0.009879103 0.03216715 -0.03687143
0.016349873 -0.03608402 -0.0066430913 -0.010397721 0.021464486 -0.0249581 0.038747545 -0.015149931
00000000: f510 3c3b 7631 be3b d3d0 083c 1a55 0bbd
00000010: 09ad 123d 8485 b33c b70b 1f3c fb9d 87bc
00000020: 5b57 a13c d838 05bd c3df 0abd 0b69 d1bb
00000030: 2db7 023b b67b db3c 8d9a 00bd fa33 aa3c
00000040: dc1a 363c 7a6c 99bc 4b23 28bc abc1 643c
00000050: 0bbc 803b 700b 25bc 0bf5 eabc 7f26 733c
00000060: 3379 8abc d676 eabb dc5a 2abd 968b 783c
00000070: 664f 703b 85f1 aebc 3e16 d2bc 907f 213d
00000080: f25b 113d 652a b03c b4a0 72bc 1757 e63c
00000090: be50 23bc baa8 723c 3a76 d53c 832d 1abd
000000a0: 6fe8 bcbc ff45 b13b a58b 2bbc c0ab f4bb
000000b0: 28b9 94bc dd9b ff3c 8075 b43c c4ea 683c
000000c0: 4490 dbbc 0020 733c 25e6 33bb bf03 f93c
000000d0: 07c4 223d 3646 653c 5d52 ba3c 6b9e 973c
000000e0: fdb2 f2bc 1b3c bc3c f056 19bd a7db a9bc
000000f0: a7e1 753c 0ea9 e03c d493 a3bb 221a 0bba
00000100: 7b51 283c 8427 253b 7c16 16bd 9af7 053d
00000110: 24b0 23bd f9f2 c7bc 789f bbbc 044a 6bbb
00000120: 0bb4 5abc affd ea3b 3b85 a0bc 00f0 09bb
00000130: ab8f 373a 18e2 9c3c 9ad4 083d 3286 ca3a
00000140: c4df b53c ecff 1e3d b71c 8f3c 6aaf 26bd
00000150: 36b9 edbb 99e3 8d3c f5e2 c23c 158c 12bd
00000160: f3ae 2d3b 67a3 9cbc ac52 103d a84c bc3c
00000170: 1d03 abbc a7f0 e6bc 3d71 27bd 8278 db3c
00000180: 4a0e 84bc 9a08 abbb e066 1a3b 006b 823c
00000190: ab79 bcbc 2fea 08bd e6b1 8e3c 6225 e3bc
000001a0: 892f 0d3d 00c3 11bd 08ec 3fbc 3d78 bb3c
000001b0: dd03 cabc 29cb 75bc f66e 1dbd dfcb 1bbd
000001c0: 78dd 6239 0871 ce3b 1459 9dbc e460 f8bc
000001d0: a4e1 14bd 8771 14bd 5808 92bc f8ac 1c3d
000001e0: de0c 113d f994 2bbd 544e c0bc 58b2 0d3d
000001f0: 41e3 febb 97dd 423c 78a7 b03b 5133 06bd
00000200: d5c4 03bd cbaf adbc 5a23 c23c cfdd bbbb
00000210: 86d4 0f3b e1af 193d 370e 10bd abcc d2bb
00000220: d3bc 1abd 16c9 46bb 0343 0dbd c0e9 a83c
00000230: 9d21 bb3c fa9f 063d 0644 09bd 27d3 243d
00000240: da88 15bd 66b8 27bd d680 f5bc 2211 213d
00000250: abba a5bb 6b3d 473b a0cf 1e3d 506a 273c
00000260: 6adc 343c 42e9 12bd 1074 4a3c b096 133c
00000270: 0938 28bd bfab 05bd 2bcf 96bc 586c e23c
00000280: 6063 eebc db87 70bc e069 ba3c e875 fd3c
00000290: 13dc fdbc e06e 393c 38dd b63c 67e5 1e3d
000002a0: eb03 2dbb a649 edbc 2017 1cbd 8be0 a13c
000002b0: 1f42 14bd ed1f 44bb 80ff b7bb d0cf e73c
000002c0: 7085 183d 79b3 94bb 8c45 1ebd 9476 e8bb
000002d0: fe58 843c a081 843c 7b0c 87bc 1666 873c
000002e0: 7215 b63c 3aa8 9b3b 2fa0 c13c 1fd0 c83c
000002f0: 2f84 43bc 104b 8e3c 768a fc3c ae28 22bc
00000300: c3e5 33bb 8ba5 7dbc 1f9f 80bc abd4 26bd
00000310: 5368 f33c eb5a 1abd 136e 14bd 32e4 0d3d
00000320: 9473 24bd cd9e 913c 0452 293d 5058 d3bb
00000330: 2024 69bc e559 f63c c711 053c 068c e4bc
00000340: 7d29 13bd 4e4b 0fbd 960b 783b b6ff 283d
00000350: 200a 21bc 674f bd3c d4ab 26bd 27cf c7bc
00000360: 5bf0 d23c eeb7 643b 1c8e 12bd 267d f8bc
00000370: 6892 823c 0125 803c ccc4 f63c 3736 0e3d
00000380: 029a 70bc 126a 11ba 0994 57bb 8027 44bc
00000390: e38d 8bbc 27b2 ecbc 6bb3 56bb c7ad 2bbd
000003a0: bf9b 883c 7b95 473c 6b98 833c 66f7 22bc
000003b0: e06c ee3c 4c1f e9bc 9433 1e3d b3ee b43c
000003c0: 8b16 33bc 3833 75b9 2811 e53c fc39 083d
000003d0: 4d17 fc3c f6db 21bc b4c1 033d 7f06 17bd
000003e0: 2bf0 853c d6cc 13bd 4aae d9bb 345b 2abc
000003f0: 4ad6 af3c ee74 ccbc bfb5 1e3d 6b37 78bc

decoder.0.bias f4 [64]
0.05579949 0.058929615 -0.0036008093 0.02312238 0.031121276 -0.034911007 -0.028838903 0.004650521
-0.011426759 0.025901208 0.0017167542 -0.007903941 -0.020244922 -0.010330642 0.04818754 -0.0196158
-0.010505333 -0.03310431 -0.0029977073 -0.02566075 0.01648103 -0.028615177 0.016034715 0.05720274
-0.015085917 0.004195297 -0.013537403 0.049496897 -0.015397138 0.009012147 0.03323551 0.055620495
-0.008615686 0.003019355 0.016360112 0.023428148 -0.005260321 0.025962422 -0.01768328 0.0014612146
0.02549449 0.013607737 0.030011686 -0.01150934 0.045375474 -0.025031509 0.027790042 0.020242017
-0.020784961 0.035620686 0.011144211 0.018119894 -0.049953118 0.05517693 0.05826662 0.04717919
-0.031218596 -0.012150329 0.048443496 -0.022840193 0.05525528 -0.019140339 0.044702742 0.0039863987
00000000: 028e 643d 2e60 713d 8efb 6bbb 256b bd3c
00000010: 0cf2 fe3c d8fe 0ebd 903f ecbc 6663 983b
00000020: 4d37 3bbc c52e d43c b604 e13a 887f 01bc
00000030: aed8 a5bc da41 29bc 4c60 453d 50b1 a0bc
00000040: 8f1e 2cbc 6398 07bd 2f75 44bb 7e36 d2bc
00000050: 3a03 873c 606a eabc 3c5b 833c 6c4d 6a3d
00000060: ec2a 77bc b478 893b fccb 5dbc 42bd 4a3d
00000070: 4744 7cbc afa7 133c f521 083d 51d2 633d
00000080: ce28 0dbc 5fe0 453b a405 863c 63ec bf3c
00000090: c55e acbb 25af d43c 87dc 90bc 3a86 bf3a
000000a0: d2d9 d03c fcf2 5e3c 11db f53c ac91 3cbc
000000b0: a2db 393d e10e cdbc f1a7 e33c 96d2 a53c
000000c0: 3945 aabc ffe6 113d 3596 363c 2c70 943c
000000d0: a49b 4cbd 3401 623d fba8 6e3d f73e 413d
000000e0: 24be ffbc 2c12 47bc b06c 463d 5b1b bbbc
000000f0: 5c53 623d 33cc 9cbc 391a 373d 56a0 823b

decoder.2.weight f4 [64, 32, 3, 3]
-0.01194486 0.036424235 -0.0017212455 0.052167624 -0.042058483 -0.05214585 0.010114868 -0.028302822
-0.011795498 0.04867467 -0.04512402 0.031277593 -0.038946547 -0.0154018095 0.013683176 0.033975508
0.036647987 0.0062761228 -0.021115681 -0.02568186 -0.02277892 -0.06810064 0.0004012492 0.03373724
0.029850878 0.011113278 -0.0086549185 -0.01526392 0.0071922294 0.06563171 0.011960383 -0.036327712
-0.024640081 0.024163568 -0.036204025 0.043794528 0.046392404 0.047314018 -0.03440186 0.0031650972
0.059962988 0.010127058 0.012365991 -0.018329471 -0.029502574 -0.029156262 -0.06543797 -0.047453385
0.04086164 -0.037599623 0.044530205 -0.052067455 0.023691518 -0.016953466 -0.026078718 0.044560153
-0.050655454 -0.007850419 -0.03947856 -0.054122034 0.046836816 -0.07117315 -0.0055281715 -0.041809615
0.059693765 0.017220644 0.058344316 -0.023139501 -0.0054568867 -0.03882546 0.022780139 0.052813265
0.058766644 0.0045570005 0.066870764 0.041774586 0.049878422 0.045321725 0.041784883 -0.011243033
0.07296946 0.035993144 0.03654958 0.009406123 -0.03585472 0.012764431 -0.0031059845 -0.013927856
0.06649951 0.05636254 0.05289984 0.06060509 0.071791105 0.05626445 0.01913529 0.007965213
-0.035520848 0.06766741 0.032077223 0.020876626 -0.024781141 0.06765987 -0.014193942 0.028778065
0.07430354 0.005646343 0.007198517 -0.02863842 0.037304543 -0.04248339 -0.05564377 -0.06887593
-0.0038834629 0.0029992252 -0.029707512 -0.0029563454 -0.024907852 0.044575088 -0.023204213 -0.057546724
-0.032754246 0.04975034 -0.013489582 -0.0023688856 0.040804263 0.028483257 -0.06533389 0.028282281
-0.009650688 0.019197656 0.026174523 -0.04934614 0.010845051 0.05371105 0.039174818 -0.030242527
-0.022497114 -0.037250653 0.04784813 -0.010832706 0.04495935 0.044962566 0.024527652 -0.003640732
-0.025527386 -0.06386942 0.014635268 -0.055180263 0.02870131 -0.044532318 -0.012605256 0.007895287
-0.035674274 0.053871218 0.029525606 0.042645585 -0.0544032 0.024443936 0.036478873 -0.018342499
0.038358692 0.0026394147 0.044909343 0.05041492 -0.026251957 -0.015605784 0.068790905 -0.032462995
0.008079887 0.068657525 0.03866553 -0.02596209 -0.027111253 -0.027929228 0.018560428 -0.0011597992
0.016847478 0.0048318314 0.016793542 -0.025370931 0.010837421 0.0020141925 -0.054722942 -0.043697495
0.029838484 -0.025419883 -0.0051017846 0.00068697816 -0.03420309 0.046362594 0.041030165 0.03858673
0.017257664 -0.019669827 0.061776113 -0.02120075 -0.014893438 -0.01683523 -0.032514658 -0.023261037
0.06494461 -0.014060553 0.05191948 0.06110544 -0.019850181 0.030154308 0.071843505 0.01735501
0.050583366 0.007563337 0.013609977 0.041213587 0.021042397 -0.025177876 -0.026270978 -0.043630812
-0.018092677 0.053832725 0.02232857 0.031349096 -0.028619971 0.03451039 -0.02741352 0.00030652477
0.018699925 0.052747145 0.031805273 -0.00766523 0.073499426 0.008636955 0.041071452 0.01970671
-0.018622952 0.026788997 0.036211044 0.07250984 0.016227465 0.07420449 0.028637907 0.049712524
0.059805617 0.026271734 0.065827556 -0.02912027 0.046657655 0.0039949454 0.02771464 0.056893412
0.028800273 -0.005010436 -0.004345492 0.04346724 -0.01754591 -0.042622123 0.032758005 0.019033004
00000000: 60b4 43bc 9431 153d 6a9b e1ba b8ad 553d
00000010: 8445 2cbd e396 55bd d5b8 253c 52db e7bc
00000020: e841 41bc 175f 473d f7d3 38bd ef1c 003d
00000030: 6a86 1fbd df57 7cbc 662f 603c e729 0b3d
00000040: 331c 163d efa7 cd3b cbfa acbc c462 d2bc
00000050: dc9a babc 5978 8bbd c25e d239 0f30 0a3d
00000060: d489 f43c 7714 363c 5ccd 0dbc 8515 7abc
00000070: cbac eb3b eb69 863d 7bf5 433c 5ecc 14bd
00000080: ffd9 c9bc adf2 c53c ac4a 14bd e461 333d
00000090: f605 3e3d 58cc 413d f7e8 0cbd 856d 4f3b
000000a0: c09b 753d f6eb 253c ba9a 4a3c b027 96bc
000000b0: 62af f1bc 1dd9 eebc 5804 86bd 7b5e 42bd
000000c0: 895e 273d 1002 1abd 4e65 363d af44 55bd
000000d0: b714 c23c ffe1 8abc 09a3 d5bc b584 363d
000000e0: 187c 4fbd 0b9f 00bc 45b4 21bd 11af 5dbd
000000f0: f6d7 3f3d 3ac3 91bd aa25 b5bb 8f40 2bbd
00000100: 7381 743d 4f12 8d3c 73fa 6e3d 0d8f bdbc
00000110: afcf b2bb 7207 1fbd 6a9d ba3c b952 583d
00000120: 4bb5 703d e452 953b 8af3 883d d41b 2b3d
00000130: 514d 4c3d 46a3 393d a026 2b3d b334 38bc
00000140: 0371 953d 8c6d 133d 03b5 153d 241c 1a3c
00000150: 66dc 12bd e721 513c c68d 4bbb aa31 64bc
00000160: e530 883d 68dc 663d 81ad 583d 0b3d 783d
00000170: 3707 933d 8d75 663d 9dc1 9c3c 8680 023c
00000180: 4f7e 11bd 3695 8a3d 6863 033d 7505 ab3c
00000190: d201 cbbc 4291 8a3d b58d 68bc fabf eb3c
000001a0: 742c 983d f504 b93b 8ae1 eb3b 1f9b eabc
000001b0: a6cc 183d 1003 2ebd b9ea 63bd d30e 8dbd
000001c0: b281 7ebb a68e 443b 2b5d f3bc 3fbf 41bb
000001d0: 8d0b ccbc 5e94 363d c316 bebc 1db6 6bbd
000001e0: 5129 06bd 03c7 4b3d 6803 5dbc 4e3f 1bbb
000001f0: 5f22 273d b855 e93c c6cd 85bd 3eb0 e73c
00000200: eb1d 1ebc 6744 9d3c f46b d63c 2e1f 4abd
00000210: 71af 313c 1e00 5c3d c675 203d 2dbf f7bc
00000220: de4b b8bc 2494 18bd 67fc 433d a97b 31bc
00000230: 4c27 383d ab2a 383d 37ee c83c 5999 6ebb
00000240: cf1e d1bc f8cd 82bd c3c8 6f3c b304 62bd
00000250: 021f eb3c 8567 36bd 4786 4ebc 3c5b 013c
00000260: 301f 12bd 11a8 5c3d afdf f13c 23ad 2e3d
00000270: e4d5 5ebd a63e c83c df6a 153d 0243 96bc
00000280: 011e 1d3d 08fa 2c3b dcf2 373d e07f 4e3d
00000290: 580e d7bc 67af 7fbc 3fe2 8c3d ebf7 04bd
000002a0: 8161 043c 519c 8c3d bf5f 1e3d 73ae d4bc
000002b0: 6b18 debc d6cb e4bc 0a0c 983c 6704 98ba
000002c0: b903 8a3c 5754 9e3b 9c92 893c b3d6 cfbc
000002d0: 708f 313c 8b00 043b 2a25 60bd 25fc 32bd
000002e0: d66f f43c 5c3d d0bc df2c a7bb 5316 343a
000002f0: 8a18 0cbd b4e6 3d3d 3f0f 283d 1e0d 1e3d
00000300: f25f 8d3c 9e22 a1bc f308 7d3d 32ad adbc
00000310: 9b03 74bc 09ea 89bc 172e 05bd ee8d bebc
00000320: ae01 853d 3c5e 66bc 85a9 543d b349 7a3d
00000330: d99c a2bc 2b06 f73c b022 933d 182c 8e3c
00000340: 8130 4f3d dfd5 f73b 62fc 5e3c 94cf 283d
00000350: 1b61 ac3c d541 cebc 3c36 d7bc 39b6 32bd
00000360: 1837 94bc b47f 5c3d 68ea b63c e967 003d
00000370: 6e74 eabc c45a 0d3d 5192 e0bc 0fb5 a039
00000380: 9630 993c 640d 583d 3f46 023d 9c2c fbbb
00000390: de86 963d 0482 0d3c 8a3a 283d f76f a13c
000003a0: 298f 98bc 9974 db3c 0852 143d 0a80 943d
000003b0: 76ef 843c 86f8 973d 0b9a ea3c 5c9f 4b3d
000003c0: bcf6 743d d237 d73c 99d0 863d a28d eebc
000003d0: 191c 3f3d 08e8 823b d009 e33c 1109 693d
000003e0: 8dee eb3c 952e a4bb a164 8ebb b40a 323d
000003f0: 71bc 8fbc 8994 2ebd 422d 063d 1aeb 9b3c

decoder.2.bias f4 [32]
0.051899318 -0.016104696 -0.012897457 0.017089425 0.03997311 -0.0017474882 0.02980504 0.025321636
0.021524968 0.025698991 0.05279114 -0.0059593096 0.03700586 -0.03355493 -0.06777309 -0.037406236
-0.05057447 0.013911028 0.07090447 -0.07174498 0.035601478 0.033359542 0.054494165 0.036506087
0.03771784 0.031047985 0.07636095 -0.02982866 0.023894075 0.034506086 0.011111347 0.008358065
00000000: 6194 543d ffed 83bc db4f 53bc 1fff 8b3c
00000010: d8ba 233d f90b e5ba b329 f43c 526f cf3c
00000020: 2155 b03c b186 d23c 863b 583d 5046 c3bb
00000030: 7593 173d e570 09bd 9ecc 8abd 4837 19bd
00000040: 2d27 4fbd 15eb 633c 5d36 913d 08ef 92bd
00000050: dbd2 113d 04a4 083d 4635 5f3d 6887 153d
00000060: 067e 1a3d 5858 fe3c 2163 9c3d 3c5b f4bc
00000070: 82bd c33c 4156 0d3d 5e0c 363c 44f0 083c

decoder.4.weight f4 [32, 3, 3, 3]
-0.043812484 0.03534202 -0.12863936 0.022548834 0.0031145238 0.04693945 -0.08239964 0.100174785
0.07215594 -0.034164827 0.19055739 0.18611218 -0.15830897 0.11327738 0.04141436 -0.108183205
-0.16253902 0.117849216 0.1098077 -0.09420984 0.15524971 -0.07786435 0.0018876207 0.20221566
0.038817372 -0.08803919 0.17259738 -0.117281385 0.085437216 -0.077245735 0.1525296 0.074933454
0.11212852 0.050925434 0.16444772 0.09895576 -0.03889222 0.1996015 0.059806284 -0.010588978
-0.04973822 -0.029703086 0.06471464 0.20930623 -0.13536283 0.013979789 -0.11724348 -0.11883178
-0.048567247 0.01667925 0.019713737 -0.083098665 -0.13029966 0.027226763 -0.01605584 -0.05835703
0.18164682 0.09800383 -0.10013196 0.09685205 -0.11115607 0.08013028 0.12692913 -0.14115123
-0.053861808 -0.084971465 -0.1437528 0.10355154 -0.0017353153 -0.16181958 0.06535774 0.1940872
-0.078701235 -0.050622515 -0.11445057 0.123853706 0.15551503 -0.028217357 -0.013811963 -0.16644937
0.123722866 -0.16114496 -0.13407972 0.12380027 0.08193131 -0.01628847 0.036449227 -0.06176819
0.1515733 -0.056431346 -0.019377055 -0.03759852 0.026392447 0.19719672 0.015969422 -0.0944668
0.0148557285 0.008786126 -0.053893447 0.15183146 0.06842373 -0.10142054 0.101297304 -0.029083656
-0.059974074 0.18326345 0.1658471 0.13590018 0.19308507 0.11196322 -0.10072872 0.1940947
-0.14643192 0.1343591 0.15074022 0.11818085 0.17447542 0.20753783 -0.13474977 0.17999774
0.09814112 -0.098682016 -0.08774255 0.11258866 0.014206276 0.076075554 0.1062899 0.08161871
0.07204248 0.20212077 -0.1262709 0.12767297 0.06992024 0.12631068 0.18353753 0.17646386
0.026658507 -0.0010189868 -0.05812464 -0.11007581 0.14946438 0.00486867 -0.022544397 0.12523407
-0.13488446 0.06864481 -0.034038547 -0.092902124 0.09735245 -0.17133093 -0.1378647 0.02209246
0.08323744 0.13641293 -0.1482613 0.013551116 0.19038256 -0.09768732 -0.16955267 -0.13798507
-0.12990297 0.052023217 -0.13141572 -0.12475598 0.20368199 0.12552117 -0.12134877 -0.07834056
-0.053659573 -0.11570626 0.17323239 0.022807317 -0.112733506 -0.0876518 -0.17744936 -0.03542621
0.06598796 0.19409089 0.0155161945 0.010596118 -0.0029543408 0.04725294 -0.056723192 -0.1652441
0.17965966 -0.083472125 0.12528913 0.050396457 0.16304208 0.12986 0.07747229 0.10122005
-0.09070909 0.11595895 0.03496318 0.20018128 0.17459507 0.09503886 0.19626579 -0.029708508
0.12639822 -0.014492048 0.08657809 -0.12990895 -0.15520275 0.1765272 0.013558597 0.0636318
0.042468265 0.14812657 -0.053110693 -0.07423993 0.10375635 0.20391217 0.12358852 0.13874096
0.0141802905 0.06222429 -0.014073081 0.19825037 0.12783378 0.029642904 0.20167464 -0.08150302
-0.05543838 0.09284145 -0.024031954 0.04301312 -0.019851213 0.1608738 0.015933461 -0.07952044
-0.100621365 0.17466716 0.0035078996 -0.021789217 -0.025788978 0.118422866 0.12501644 -0.08706962
0.050435234 0.19105928 0.1972665 -0.029405583 0.20172776 0.11087851 0.120316625 -0.16699557
0.12861365 -0.16270994 -0.08583315 0.08002775 0.20689595 0.079364344 0.11493733 0.19407874
00000000: b874 33bd cbc2 103d 09ba 03be 55b8 b83c
00000010: 0a1d 4c3b 9543 403d 24c1 a8bd 7028 cd3d
00000020: 7ec6 933d 6bf0 0bbd 7a21 433e 3194 3e3e
00000030: bf1b 22be f9fd e73d 1ba2 293d 288f ddbd
00000040: a170 26be ee5a f13d dce2 e03d 17f1 c0bd
00000050: c8f9 1e3e 5877 9fbd 0a6a f73a 9f11 4f3e
00000060: f7fe 1e3d e44d b4bd 5ebd 303e 3931 f0bd
00000070: b5f9 ae3d 0333 9ebd b830 1c3e b676 993d
00000080: a3a3 e53d 3097 503d fc64 283e 51a9 ca3d
00000090: 734d 1fbd 5664 4c3e 6ff7 743d 657d 2dbc
000000a0: 4eba 4bbd e353 f3bc 1c89 843d 5f54 563e
000000b0: 8e9c 0abe 7c0b 653c 5a1d f0bd 145e f3bd
000000c0: 73ee 46bd eca2 883c b47e a13c a22f aabd
000000d0: 466d 05be a90a df3c 8987 83bc c807 6fbd
000000e0: a001 3a3e 3bb6 c83d fc11 cdbd 5e5a c63d
000000f0: cba5 e3bd 581b a43d b6f9 013e f389 10be
00000100: 339e 5cbd 8505 aebd ef33 13be d412 d43d
00000110: 8573 e3ba 08b4 25be 47da 853d ccbe 463e
00000120: 1d2e a1bd 8e59 4fbd 0f65 eabd 03a7 fd3d
00000130: 553f 1f3e 1628 e7bc 924b 62bc b471 2abe
00000140: 6a62 fd3d 2f03 25be 324c 09be ff8a fd3d
00000150: 9acb a73d 666f 85bc c94b 153d a400 7dbd
00000160: 0836 1b3e 8e24 67bd a1bc 9ebc e800 1abd
00000170: f934 d83c f0ed 493e 4ed2 823c cf77 c1bd
00000180: 7165 733c aff3 0f3c 60bf 5cbd b579 1b3e
00000190: be21 8c3d 92b5 cfbd f674 cf3d d940 eebc
000001a0: 60a7 75bd 6aa9 3b3e d2d3 293e 6b29 0b3e
000001b0: 18b8 453e f94c e53d dc4a cebd c3c0 463e
000001c0: 40f2 15be 6f95 093e a55b 1a3e cd08 f23d
000001d0: afa9 323e cc84 543e d8fb 09be 5451 383e
000001e0: 36fe c83d cc19 cabd 5eb2 b3bd e294 e63d
000001f0: 71c1 683c 80cd 9b3d 85ae d93d b627 a73d
00000200: 028b 933d bff8 4e3e 294d 01be b4bc 023e
00000210: 5832 8f3d 9657 013e 43f1 3b3e f1b2 343e
00000220: f162 da3c 868f 85ba 1a14 6ebd 6d6f e1bd
00000230: 310d 193e 5d89 9f3b 07af b8bc 5c3d 003e
00000240: 271f 0abe a695 8c3d 016c 0bbd 7843 bebd
00000250: b960 c73d 6071 2fbe 672c 0dbe 3ffb b43c
00000260: 6478 aa3d d5af 0b3e cfd1 17be 8005 5e3c
00000270: a5f3 423e 4a10 c8bd 379f 2dbe f54b 0dbe
00000280: 4905 05be 4c16 553d d891 06be 1080 ffbd
00000290: 0392 503e 9f88 003e b485 f8bd 0471 a0bd
000002a0: 24ca 5bbd 67f7 ecbd d563 313e 69d6 ba3c
000002b0: d3e0 e6bd c982 b3bd 49b5 35be 131b 11bd
000002c0: b224 873d c3bf 463e a337 7e3c 579b 2d3c
000002d0: 9d9d 41bb 4c8c 413d 9456 68bd c035 29be
000002e0: b4f8 373e 6ff3 aabd cb4b 003e 846c 4e3d
000002f0: 81f4 263e 05fa 043e cba9 9e3d 754c cf3d
00000300: b0c5 b9bd e37b ed3d 8d35 0f3d 52fc 4c3e
00000310: 0dc9 323e bca3 c23d e6f9 483e 425f f3bc
00000320: 896e 013e 0e70 6dbc db4f b13d da06 05be
00000330: 78ed 1ebe 8cc3 343e e124 5e3c 6451 823d
00000340: 34f3 2d3d 7eae 173e 998a 59bd 1b0b 98bd
00000350: 367e d43d 5ace 503e fa1b fd3d 1c12 0e3e
00000360: 7354 683c e6de 7e3d c892 66bc 2502 4b3e
00000370: dce6 023e add5 f23c cc83 4e3e 0eeb a6bd
00000380: 5b13 63bd a823 be3d a9de c4bc 862e 303d
00000390: 039f a2bc 1abc 243e e486 823c 9ddb a2bd
000003a0: 9312 cebd f3db 323e cae4 653b 4d7f b2bc
000003b0: 6843 d3bc b087 f23d 4f04 003e 8f51 b2bd
000003c0: 2d95 4e3d 0ba5 433e 3b00 4a3e fae3 f0bc
000003d0: b991 4e3e 4614 e33d 9068 f63d e300 2bbe
000003e0: 4cb3 033e 6f9d 26be 4ac9 afbd 97e5 a33d
000003f0: 88dc 533e c689 a23d 4364 eb3d 94bc 463e

decoder.4.bias f4 [3]
-0.004528309 -0.013210157 -0.1051194
00000000: 3662 94bb 6a6f 58bc d748 d7bd
